Notebooks/models/linearModel.pt (torch, 32944 bytes, 2 tensors)

linear.weight f4 [10, 784]
0	0x00000000	0.0
1	0x00000000	0.0
2	0x00000000	0.0
3	0x00000000	0.0
4	0x00000000	0.0
5	0x00000000	0.0
6	0x00000000	0.0
7	0x00000000	0.0
8	0x00000000	0.0
9	0x00000000	0.0
10	0x00000000	0.0
11	0x00000000	0.0
12	0xb62cb199	-2.5733373e-06
13	0xb73e825c	-1.1355234e-05
14	0xb6d59a1f	-6.3658367e-06
15	0xb48e66c0	-2.6524322e-07
16	0x00000000	0.0
17	0x00000000	0.0
18	0x00000000	0.0
19	0x00000000	0.0
20	0x00000000	0.0
21	0x00000000	0.0
22	0x00000000	0.0
23	0x00000000	0.0
24	0x00000000	0.0
25	0x00000000	0.0
26	0x00000000	0.0
27	0x00000000	0.0
28	0x00000000	0.0
29	0x00000000	0.0
30	0x00000000	0.0
31	0x00000000	0.0
32	0xb1c2dfde	-5.671594e-09
33	0xb3bc2ada	-8.762227e-08
34	0xb72b5f5e	-1.0214599e-05
35	0xb875a611	-5.8567213e-05
36	0xb934eb67	-0.00017253832
37	0xb965f737	-0.00021931237
38	0xb964cf90	-0.00021821097
39	0x396582a0	0.00021887803
40	0x3a425069	0.0007412495
41	0x3945e4f8	0.00018872682
42	0xb98dacdc	-0.00027022406
43	0xb9eb2559	-0.0004485052
44	0xba3f00e8	-0.0007286207
45	0xba3b9824	-0.00071561546
46	0xba084ea3	-0.0005199706
47	0xb9d148e7	-0.00039917903
48	0xb9f59665	-0.00046842094
49	0xb97fb220	-0.00024385052
50	0xb8ccc70d	-9.764554e-05
51	0xb5f56414	-1.8283049e-06
52	0x00000000	0.0
53	0x00000000	0.0
54	0x00000000	0.0
55	0x00000000	0.0
56	0x00000000	0.0
57	0x00000000	0.0
58	0xb2059058	-7.774439e-09
59	0x3896aa8d	7.184325e-05
60	0x37cbea63	2.430863e-05
61	0xb7a61e68	-1.9802901e-05
62	0xb9c7c4f9	-0.00038102994
63	0xb98141dc	-0.00024653866
64	0xbaa03d9c	-0.0012225392
65	0xbb6a81e7	-0.0035782994
66	0xbba5a0ad	-0.0050545544
67	0xbbc81adc	-0.0061067175
68	0xbbff47e1	-0.007790551
69	0xbc19bc5a	-0.009383285
70	0xbc4712a6	-0.012150442
71	0xbc80c32d	-0.015718067
72	0xbc9da307	-0.019242777
73	0xbc9a9f2d	-0.018874729
74	0xbc8bd747	-0.017070426
75	0xbc64349a	-0.013928557
76	0xbc1198ff	-0.008886575
77	0xbba4ef0e	-0.0050333804
78	0xbb1e5d9d	-0.0024164685
79	0xba8462e9	-0.0010100278
80	0xb998f95b	-0.00029177484
81	0xb6b00d04	-5.246724e-06
82	0x00000000	0.0
83	0x00000000	0.0
84	0x00000000	0.0
85	0x00000000	0.0
86	0xb297d2d7	-1.7674592e-08
87	0x38e629ac	0.000109750166
88	0xb908898f	-0.00013021215
89	0xba42e229	-0.0007434213
90	0xbb2cf5f2	-0.0026391712
91	0xbb71181f	-0.003678806
92	0xbbe8e094	-0.00710685
93	0xbc7af3f2	-0.01531695
94	0xbcadacce	-0.021200564
95	0xbccd6b90	-0.025075704
96	0xbd01772b	-0.031607788
97	0xbd076174	-0.033051923
98	0xbd1505af	-0.036382373
99	0xbd2f6536	-0.04282113
100	0xbd412a92	-0.04715974
101	0xbd65ec89	-0.05613378
102	0xbd6dbcaa	-0.058041252
103	0xbd475312	-0.048663206
104	0xbd24ec02	-0.040264137
105	0xbd028257	-0.031862583
106	0xbca88b16	-0.020574134
107	0xbc071bff	-0.008246421
108	0xbb37c7a7	-0.0028042586
109	0xba31d826	-0.0006784223
110	0xb89b00f7	-7.391156e-05
111	0x00000000	0.0
112	0x00000000	0.0
113	0xb2b1f8e4	-2.0718694e-08
114	0xb6897a1e	-4.0971345e-06
115	0xb7f0393d	-2.8636883e-05
116	0xba8e56a2	-0.0010859559
117	0xbbb4d634	-0.005518699
118	0xbc208da6	-0.009799397
119	0xbc777932	-0.015104579
120	0xbcc38f6b	-0.023872098
121	0xbd13e7aa	-0.036109604
122	0xbd3d5b04	-0.046229377
123	0xbd36d649	-0.044637952
124	0xbceb8dbd	-0.02875411
125	0xbbe9f777	-0.007140096
126	0x3c14db76	0.009085527
127	0x3ca191d7	0.019722862
128	0x3bb9adb4	0.005666459
129	0xbc17da78	-0.009268396
130	0xbc9ef8bb	-0.019405713
131	0xbca705ff	-0.020388601
132	0xbc8eba8e	-0.01742294
133	0xbcc526fe	-0.024066444
134	0xbcafb150	-0.021446854
135	0xbc756e96	-0.014979979
136	0xbc1fcd25	-0.0097535
137	0xbb467e58	-0.003028771
138	0xba233ea6	-0.0006227292
139	0xb596e820	-1.1243428e-06
140	0x00000000	0.0
141	0x00000000	0.0
142	0xb8345611	-4.29955e-05
143	0xb98366d1	-0.0002506287
144	0xbb513464	-0.0031922096
145	0xbc52bf4a	-0.01286299
146	0xbcaf9d77	-0.02143739
147	0xbd0d606e	-0.03451579
148	0xbd4cd871	-0.050011102
149	0xbd801490	-0.06253922
150	0xbd602c35	-0.05472966
151	0xbcec810c	-0.028870128
152	0x3c2ef586	0.010678655
153	0x3d8dabbf	0.069175236
154	0x3dd8031e	0.105474696
155	0x3e0aee6b	0.13567512
156	0x3e1554dc	0.14583153
157	0x3e0760fb	0.13220589
158	0x3db8ce0e	0.09023677
159	0x3d4e92c4	0.050432935
160	0x3c5caa69	0.013468363
161	0xbb99e344	-0.0046962816
162	0xbcb13080	-0.021629572
163	0xbcddb758	-0.027064964
164	0xbcb5f025	-0.022209236
165	0xbc23f8c8	-0.010008045
166	0xbb3becdd	-0.0028675117
167	0xb9ba3174	-0.0003551353
168	0x00000000	0.0
169	0xb4423b40	-1.8089213e-07
170	0xb92559c8	-0.00015769072
171	0xbaa7aa34	-0.0012791813
172	0xbbe8e730	-0.007107638
173	0xbc8f262e	-0.01747426
174	0xbd01a46e	-0.031650953
175	0xbd47c258	-0.048769325
176	0xbd804b0f	-0.06264316
177	0xbd5fac4e	-0.054607682
178	0xbcef5d8d	-0.029219413
179	0xb9d54dca	-0.00040684483
180	0x3d30baa3	0.04314674
181	0x3db3c65b	0.08778068
182	0x3dedcf1c	0.116117686
183	0x3e226bb2	0.15861395
184	0x3e39ebd9	0.18156375
185	0x3e421873	0.18954639
186	0x3e24df0f	0.16100715
187	0x3df00351	0.117193826
188	0x3d9883ac	0.074469894
189	0x3d39293d	0.045205344
190	0x3c1fdf35	0.009757807
191	0xbcf58a28	-0.029973105
192	0xbd2db303	-0.042407047
193	0xbcb5054e	-0.022097256
194	0xbbe9228a	-0.007114713
195	0xba70f841	-0.0009192266
196	0xb7871bc5	-1.6106185e-05
197	0xb928d2cf	-0.00016100261
198	0xba19cfcf	-0.0005867453
199	0xbb1f7c1d	-0.0024335452
200	0xbc4b39d2	-0.012403922
201	0xbcd18d5d	-0.025580103
202	0xbd25e756	-0.040503822
203	0xbd5174f4	-0.051136926
204	0xbd5d26d0	-0.053992093
205	0xbcc327ed	-0.023822749
206	0xbbb5df70	-0.0055503175
207	0x3cf13bb5	0.029447416
208	0x3d6fef70	0.058577955
209	0x3d9b0e29	0.0757106
210	0x3dce1e01	0.100643165
211	0x3e0a2002	0.13488773
212	0x3e2e85b7	0.17043196
213	0x3e55a657	0.20864235
214	0x3e433509	0.190632
215	0x3e0baedd	0.13640924
216	0x3dc4d6e9	0.09611303
217	0x3d81e169	0.06341822
218	0x3d1b07bf	0.037849184
219	0xbbfe96d6	-0.007769446
220	0xbd415afe	-0.047205918
221	0xbd0544a1	-0.032536153
222	0xbc0fdb8c	-0.008780371
223	0xb8bda339	-9.042625e-05
224	0xb8666a9b	-5.4935557e-05
225	0xb9961f75	-0.00028633667
226	0xbae94c5d	-0.0017799247
227	0xbbcb5bcd	-0.006206012
228	0xbcb5e422	-0.022203509
229	0xbd167e53	-0.036741566
230	0xbd34829a	-0.044069864
231	0xbd30eaf8	-0.043192834
232	0xbd02eeea	-0.031966127
233	0xbc81860a	-0.015810985
234	0x3c2843dd	0.010270086
235	0x3d0b3a76	0.0339913
236	0x3d5dfcd0	0.05419618
237	0x3d85c28f	0.0653125
238	0x3da8d769	0.08244211
239	0x3ddd0d24	0.10793522
240	0x3e174feb	0.1477658
241	0x3e2b6221	0.16736652
242	0x3e33926d	0.17536326
243	0x3e0c6161	0.13709022
244	0x3ddf986a	0.109177426
245	0x3da9c7a0	0.082900286
246	0x3d87a7e0	0.066238165
247	0x3d0fbc07	0.035091426
248	0xbd019094	-0.03163202
249	0xbd173c3c	-0.03692268
250	0xbc074dd9	-0.008258306
251	0xba25c32c	-0.00063233334
252	0xb73c18fe	-1.1211492e-05
253	0xb9e7f2d4	-0.00044240674
254	0xbb2e9fec	-0.0026645614
255	0xbc1916cf	-0.009343817

linear.bias f4 [10]
0	0xbdc41631	-0.09574545
1	0x3e9e8161	0.30958083
2	0xbda2fd93	-0.07958522
3	0xbde2a1a7	-0.11065989
4	0x3e073cad	0.1320674
5	0x3e657236	0.2240685
6	0x3c91b90a	0.017788429
7	0x3e5596e9	0.20858349
8	0xbf034fe2	-0.51293766
9	0xbdbecad2	-0.09316029
